p1_navigation/2000_episode_checkpoint.pth (torch, 29271 bytes, 6 tensors)

fc1.weight f4 [64, 37]
00000000: 8070 bcbd 239b 7abd a8f6 9c3b c64d 593d
00000010: cff8 103e 535b ddbc 3756 f43d ab91 573d
00000020: 991e 2c3e 8c3c f63d 1ab4 933e b442 2bbf
00000030: 4a5d 2ebf 55b0 54bf 85f6 10c0 01c0 f9bb
00000040: 7057 1abd 2d83 2f3e 9e20 cf3d 125b cd3d
00000050: b9bf de3c 95bd 4d3d 2401 903d 9d9e b43d
00000060: 63c2 293e 5e15 dabc d403 233e 9384 a13d
00000070: 6c52 4cbd 809c 8d3d 3605 01be 7707 b4bc
00000080: 05dd 4f3d 7728 4f3d 3b8c d8bc 938e 4bbb
00000090: 0245 6cbc 220f 033f 940f 10bf be7c 0fbe
000000a0: a29d 6fbe bf37 a5bf d91b ffbd 5895 26bc
000000b0: 2cec 19bd 930c 873d 560e 7c3e 783d 773d
000000c0: 614e 413d 7e84 f83d 26ac 09bd 034f e43c
000000d0: b3c8 ddbc e141 e13d e692 bf3d 8eee 613e
000000e0: 2102 4d3e e6bb 07be 0544 773d 6758 78bd
000000f0: d4c3 fdbb 22ac ecbd e266 263d dc69 76bd
00000100: a1ff 99bc b714 5f3d ae8e 42be 2beb 693d
00000110: 2954 003d 0bac 5dbc 969e af3d cc94 20be
00000120: 673e cabd b5d5 823c fdf2 b43e 16d5 0f3a
00000130: 7ae7 fa3d 9634 05be 0c25 3fbf 9786 0abf
00000140: 02c3 373c 1b7e 953e cab5 f0bc b778 96be
00000150: 90fe ee3c ca69 a0be 81e5 883e 68bd 523d
00000160: ae60 fbbd 9690 0ebd 7ec8 b33e cba0 733d
00000170: 9b78 44bd 0176 e7bd 580b 583d d195 42bd
00000180: b8b4 d43c 2db6 fdbe a7c5 a0be 839f 87bd
00000190: f5f8 b4bc 5888 913e 167a d63c cd21 ecbe
000001a0: 06a0 9cbe f621 c7bd 63bf b33d a015 0cbe
000001b0: fc14 02bf 4a1f fdbc cbe1 bcbd 8b0d 3c3e
000001c0: 4d3b 3cbe c3cc 7d3d f54f 48bf 9c3f 51bf
000001d0: deec a13d 3f8c 95bd 1d95 87bf 66b8 563e
000001e0: 92d5 98be ba9e 493d 46e1 8cbd a0cf 9cbd
000001f0: a303 4cbf 572a c9be a84e ea3c c95c 1c3e
00000200: 7b9e 64bf b7f0 1cbf 3fdc 12be ab29 dabe
00000210: c92e d2bd c3e4 1a3e 4975 bbbe 3f40 91bc
00000220: a478 f4bd a3e2 b6bc 84b1 99be 7d8a a93e
00000230: 952f 093d de78 8abd 046f 993e 49a5 c7be
00000240: e0ef dfbe f5d0 0f3e c2ae 103e 868d fabd
00000250: acf2 57bd d60b 2abf 47ea 24bd bc25 e9be
00000260: cf64 5ebf f66b a6be fe0c a43e 153a 103e
00000270: 740c 02bf 975c 28bf 5f2e 2cbc 3c23 29be
00000280: 904f 923d 79ba 06bf 30bb 74be 2e11 0cbf
00000290: ed42 88be ebe3 993e 4633 3abf ffde a93c
000002a0: 29bb 0e3e f3a5 57bf 941a 0b3e fe60 bebe
000002b0: 8c6f 1dbf b61f 14be f293 e7be 3109 a03e
000002c0: 126d ffbe 928e 86bf 10eb 38bd e300 d0be
000002d0: 15bb dd3d 59d5 b6be b5b7 13bf 2f6a ecbd
000002e0: 6aa6 1abc 6fd9 ab3c d889 e9bd c2cd 84be
000002f0: bfed 453e 7c60 d1bd 380d 8f3e 241b 7c3e
00000300: 6551 38bf af20 23bf 6c12 9dbf 89ee 693d
00000310: e419 91be 4365 de3c 5cf9 86bd b184 91bb
00000320: 78a3 eabc 2551 4b3d d58c 8ebd b971 5c3d
00000330: 5c4b 9bbe e7c1 0a3e 56ae 05be b429 79be
00000340: 3fe1 c03e 099e 3fbe f8ac 80be a95d a33c
00000350: 946e 6a3e 38a7 573e 6d4c 71be cf37 31bc
00000360: dcae aabd a0fc 183d 6c53 0ebd b77e 2f3e
00000370: 5b58 9cbc 2e03 80bb fde5 fabe 9ef7 e0be
00000380: db81 343e 9b62 853e a018 8f3e 4013 91be
00000390: 7459 093e f0e4 39be f2b4 c7bd 6df7 8fbd
000003a0: bfe1 ce3e 2317 3bbe 386e 21be 6c4a a8be
000003b0: 605a 13bf 6766 d53d a6f6 0ebf 0312 59bf
000003c0: 429b 5fbc 1653 e4bd d573 6c3e 48e5 f0be
000003d0: e865 cd3d 4e5d 11bf c889 d2be d58e b5be
000003e0: 2158 b4be f8c0 ac3d 4498 e7be f272 38bf
000003f0: 8d02 e13e 492b 17bf 0572 b5be c469 bfbe
-0.09201145 -0.061183106 0.004790146 0.053052686 0.14157413 -0.027021086 0.11930507 0.052629154
0.16808547 0.12023267 0.28848344 -0.66898656 -0.681111 -0.8308156 -2.2650464 -0.0076217656
-0.037681043 0.17139883 0.10113643 0.10027136 0.02719103 0.050229628 0.070314676 0.088193156
0.16578059 -0.026621517 0.15919429 0.07886615 -0.04988329 0.06914616 -0.12599644 -0.021976216
0.05074789 0.0505757 -0.026434055 -0.0031060323 -0.01442075 0.51194966 -0.5627377 -0.14012429
-0.23399976 -1.2907637 -0.124564834 -0.010167442 -0.037578747 0.06594195 0.24614844 0.060361356
0.04719389 0.12134646 -0.03361144 0.027869707 -0.02707324 0.109988935 0.093541905 0.22063658
0.20020343 -0.13255271 0.060367603 -0.060631182 -0.007744292 -0.11556269 0.04062546 -0.06015955
-0.018798651 0.054463115 -0.1899974 0.05710904 0.03133026 -0.013529788 0.0857517 -0.15681762
-0.098751836 0.015971044 0.35341635 0.00054867694 0.12251182 -0.13008341 -0.74665904 -0.5411162
0.011215927 0.29197773 -0.029383559 -0.29388973 0.02917412 -0.3133071 0.26737598 0.051450163
-0.122742996 -0.034805857 0.351139 0.059479516 -0.04796658 -0.11301804 0.052745193 -0.047506157
0.02596508 -0.49553052 -0.31400797 -0.06622221 -0.022091368 0.28424335 0.026181262 -0.46119538
-0.30590838 -0.097232744 0.087767385 -0.13680124 -0.5081327 -0.030898709 -0.09222754 0.18364541
-0.18381996 0.061962854 -0.78247005 -0.81737685 0.07906507 -0.073021404 -1.0592381 0.2096878
-0.2985044 0.04922364 -0.06878905 -0.07656789 -0.7969305 -0.39290115 0.02860196 0.1526977
-0.8930432 -0.613048 -0.1434183 -0.42609915 -0.1026283 0.15126328 -0.3661292 -0.01773083
-0.11937073 -0.022324866 -0.30018246 0.3311347 0.033492643 -0.06761335 0.2996751 -0.3899329
-0.43737698 0.14044555 0.14129165 -0.12234025 -0.052721664 -0.6642431 -0.040262487 -0.45536602
-0.8687257 -0.32504243 0.32041162 0.14084657 -0.5080025 -0.6576628 -0.010509103 -0.16517347
0.071440816 -0.52628285 -0.23899531 -0.54713714 -0.2661356 0.300567 -0.7273449 0.020736216
0.13938583 -0.84237593 0.13584358 -0.37183374 -0.6149833 -0.14465222 -0.4523006 0.31257012
-0.49887902 -1.0512259 -0.045146048 -0.40625677 0.10826699 -0.35709646 -0.5770219 -0.115436904
-0.00943909 0.020977704 -0.11403245 -0.2593823 0.19328974 -0.10223481 0.27939773 0.24619728
-0.719992 -0.63721746 -1.2271247 0.05711225 -0.28340065 0.027147895 -0.0659053 -0.004440867
-0.028642401 0.049637932 -0.06960455 0.053819392 -0.30330932 0.1355053 -0.13054785 -0.24332315
0.3767185 -0.1871263 -0.25131965 0.019942122 0.22893745 0.21059883 -0.2356431 -0.010816528
-0.08334133 0.037350297 -0.034747526 0.17138182 -0.0190851 -0.003906629 -0.49003592 -0.43938917
0.17627661 0.26051793 0.27948475 -0.28335 0.1341303 -0.18153739 -0.097513095 -0.070296146
0.40406606 -0.18270545 -0.15764701 -0.3286928 -0.57559776 0.10419922 -0.55845106 -0.8479311
-0.013647856 -0.1114866 0.23091061 -0.47049928 0.10029203 -0.56782997 -0.41120744 -0.35460535
-0.35223487 0.08435243 -0.45233357 -0.7205039 0.4394726 -0.5905042 -0.35438552 -0.3738538

fc1.bias f4 [64]
00000000: f97b 683d 82c9 80bd a570 7abd d2bb 93bd
00000010: 0bda 383e 4f98 95bd e0b1 15bd 1b6d 8c3c
00000020: d0cc c0b8 0053 64be 4036 883b 070d 1a3e
00000030: f408 1b3e 02fb 223d de28 e2bd fa6a 0abe
00000040: aeac 29be 4df0 8f3d b406 9b3d a984 94be
00000050: ca90 74be 19e8 063d 9146 70bd 5ac9 21be
00000060: fcde f0bd 135e 9e3e eefc 0cbd faca 13be
00000070: f657 043e b875 053e e1bc 1abe 1ce2 cc3c
00000080: ff1f d83d cf8a d8bc 5d56 1cbe 05fe aabd
00000090: cb70 00be 21cd 26bd 5c2d 5d3d c85c 1bbe
000000a0: cd1f 9abd 6807 8f3d 7e10 263d 2449 8f3e
000000b0: b3e4 1bbe d21b a0bd 8a99 8fbd b0fc 9cbe
000000c0: 2f5e 69be d670 8dbd 9687 21be 61a7 4d3c
000000d0: 7a5e adbd a6e5 05be 873f 1fbe 52e1 72be
000000e0: 2644 253d f52b 53bd 830e 0abe 3d77 39be
000000f0: 4105 32bd 5c30 003d 74d3 8abd 97d1 803d
0.056758855 -0.062884346 -0.061142582 -0.07213558 0.18051927 -0.07304441 -0.036546588 0.01714187
-9.193423e-05 -0.22297287 0.0041568577 0.15044032 0.15140134 0.03979016 -0.11042951 -0.13517371
-0.16569778 0.070282556 0.07569638 -0.29007462 -0.23883358 0.03293619 -0.058661047 -0.15799466
-0.11761281 0.30931148 -0.0344209 -0.14432898 0.1292418 0.13033187 -0.15111114 0.025010161
0.10552978 -0.026433377 -0.1526732 -0.08349232 -0.12543027 -0.04072297 0.053998336 -0.15172112
-0.07525597 0.069838345 0.040543072 0.2798549 -0.1522396 -0.07817806 -0.07011707 -0.30661535
-0.22789834 -0.06906287 -0.15774378 0.012552113 -0.084652856 -0.13075885 -0.15551578 -0.23718765
0.040348195 -0.051555593 -0.13482098 -0.18111892 -0.04346204 0.03129612 -0.06778613 0.06289976

fc2.weight f4 [64, 64]
00000000: 47f4 a73d 35b0 c9bd b592 913e 50e3 503e
00000010: aaf1 aabc 0e06 733d f240 a23e bbeb fbbe
00000020: f9ea 33be 812e 18be bb42 68ba f515 33be
00000030: d476 abbe 7249 55be 941d 40b9 4354 a83b
00000040: 6c16 87be 966c 6a3e 0936 d3bd de34 79bd
00000050: 3a14 15be c4dd c3bd 0566 133f e03f c5ba
00000060: e93f c3be 8ada 8abe aff4 c4bd 1f15 c63e
00000070: 0309 90be 1a90 13bf eb39 f13e 100b b2be
00000080: e2dc 0b3e 21db 49be 0911 f53d 0f77 c23d
00000090: bbab 6ebd 1efd d13e 5a04 87bc 961f 2f3d
000000a0: 2571 afbe e60d 7cbd 5223 813e 89c6 7bbd
000000b0: 891a eabd 4689 f1bd 419e 3b3e cd6d 49bd
000000c0: 6245 6f3c a9aa cb3d dd6a 403d 4a5e 91be
000000d0: 358c 413d dab2 76bc 7f05 30be d23d 86bd
000000e0: f31e 853e 0c97 60bc 4f2e 82be 37e3 093e
000000f0: 8c82 febc 1f17 2f3f 76d3 463d 3300 083f
00000100: f49d 743d 28ca 89be dd12 05bf a756 a63e
00000110: 6f84 f13e 0167 443e 80c4 423e f8d4 90be
00000120: cdf4 f33c e280 fbbe 750d b6be 0c01 653e
00000130: 809a 74be 3688 a2be 480c 8c3e 03ed 0e3f
00000140: ea1d b73e 504c 503e 033a 45bf a326 3dbf
00000150: fa11 dbbc 0b1d 63bd 727c 64be e244 25bd
00000160: 1eb8 3c3e 48ee 003e 8c10 0c3e b6a7 303b
00000170: 1fcb da3b 03c7 dd3b f221 09be 720c 773e
00000180: a1c7 8ebe 9346 afbe 3d5b f4bd 0ccc 85be
00000190: f9ef 0d3e 9ed8 283c 2987 ca3e 9983 37be
000001a0: 6f4a 65be c90d c53e 35ea 5bbe 742e a9bd
000001b0: 207d 263d c0e0 47bd b4c4 253d c3ef b9be
000001c0: 3679 a4be 6ada 46be 6a68 d4bc c222 a9bd
000001d0: 0362 cebc 140d d9be e334 9dbd 2054 363e
000001e0: 5182 a13e 1595 673e 0e78 713e 4028 ff3e
000001f0: e4a8 803d a533 48bd 0f83 5b3e e496 f3be
00000200: 1bae 20bb eedb 3abe 20a6 2fbe 243d 04be
00000210: 7e7b 7dbd 3c3d 943d 820f 89be 6c7c 523c
00000220: ce2f 23be fbb9 b63d bbee a93c 1597 53be
00000230: 41c0 eebd cd22 203d 2a8e df3b 838d aabe
00000240: c905 19be aba1 883e a1ea f0bd a234 d4bc
00000250: 3d3b 60bb ef44 013f b94a 073f 1e90 5ebe
00000260: 9137 bebd 828a 88be f0ae 46bd ceb9 eb3e
00000270: 2f98 d9bd 14fe 0f3f fd11 5c3e 83cc 823e
00000280: 491d fcbd 3588 bd3d a801 42bd 4879 2e3e
00000290: 1a74 c63d fc13 a0be 9ce6 b4be 1890 61bc
000002a0: 2030 d33d 0f9f a43d dbfb 963c 286b 4abe
000002b0: a192 163c 03e2 02be 5df6 553e 5c28 073c
000002c0: 4a1b ec3a 740a 943e a1c0 edbb e36e 37be
000002d0: 9bb7 85bd b1b2 8f3d b5fd a4be eeb2 4bbd
000002e0: 49a0 d93a 1bc2 f03c 668e 033e 6998 6f3e
000002f0: b7b1 5ebd 5fd7 a1be ddbb fe3e 68cd 79be
00000300: 8b7b 0abf 2b56 31be 86c5 433e 3455 c2be
00000310: 4434 073f 398f c3bc bee3 d0be c464 41be
00000320: 4f6e c6be 302f 6b3e 0a65 243e 8475 41bd
00000330: cc4a a2be 4f59 b03d ec3a 9c3e 92fb bebe
00000340: 1c1c 8fbf 83d2 c3bd 9c60 92bc 6f2a 37bf
00000350: dbf2 a63d 7bb9 3fbe 4f94 783e 0135 8f3e
00000360: ce10 d13d 48e1 983c 047d 123f 7e51 a5bd
00000370: 8e0f c03e a263 bf3c e1f9 d8be 8bd4 e8be
00000380: 454d 143d f6ed d0bc 715a 703e efeb 83be
00000390: 6a53 8dbf 4f73 283e a064 403e 8a70 a1bf
000003a0: 455c a83d 3abe 04be 0d12 b63c 1d4a 87be
000003b0: e374 4ebf 0363 04be 7856 11bf 880b dabe
000003c0: ffdd 4fbe d624 123f 9f71 e0be 1bad 8ebe
000003d0: 70ef a9bd 7b19 c63d e013 78be 9afd b4be
000003e0: 39df 2bbe d1b9 babe 7f7b b1be dea3 c43d
000003f0: 6617 40bd b048 c83d 3225 34bf b554 9c3e
0.08200889 -0.09848062 0.2843224 0.20399213 -0.020867188 0.059331946 0.31690174 -0.49203286
-0.17570104 -0.1486149 -0.0008860041 -0.17488845 -0.33489096 -0.20828798 -0.00018321566 0.005136998
-0.26384294 0.22892985 -0.10313041 -0.060841434 -0.14558497 -0.09563783 0.57577544 -0.0015048943
-0.38134697 -0.27119857 -0.09616982 0.3868799 -0.28131875 -0.57641757 0.471145 -0.34774065
0.13658479 -0.19712497 0.1196614 0.09495365 -0.058269244 0.41013426 -0.016481567 0.042754732
-0.3426601 -0.061536692 0.2522226 -0.061468635 -0.114308424 -0.11793761 0.18322088 -0.04917698
0.0146039445 0.0994466 0.046976913 -0.2839225 0.047252852 -0.01505729 -0.17189597 -0.0655476
0.26000175 -0.013707887 -0.25425956 0.13465582 -0.031068109 0.68394655 0.04854151 0.53125304
0.05972095 -0.26912045 -0.5198191 0.32487985 0.4717135 0.19179918 0.19020271 -0.28287482
0.029779816 -0.49121767 -0.35557142 0.2236368 -0.23887062 -0.31744546 0.2735312 0.558304
0.3576501 0.20341611 -0.77041644 -0.7388708 -0.02674197 -0.05544762 -0.22313097 -0.040348895
0.1842961 0.12590897 0.13678187 0.0026955432 0.006677046 0.006768109 -0.13391855 0.24125841
-0.2788668 -0.3423353 -0.11931465 -0.26132238 0.13861074 0.010305552 0.39556244 -0.17921294
-0.22391675 0.3848708 -0.21476062 -0.08260813 0.040646672 -0.048798323 0.040470794 -0.36315736
-0.32123727 -0.19419256 -0.025928695 -0.08258583 -0.02519322 -0.4239279 -0.07676103 0.17805529
0.31544736 0.22615464 0.23580953 0.49835396 0.06282213 -0.048877377 0.21436714 -0.47576058
-0.0024517837 -0.18247959 -0.17153215 -0.12913948 -0.06188535 0.07238242 -0.26769644 0.012847047
-0.15936205 0.08922192 0.020743718 -0.20663102 -0.11657763 0.03909569 0.006822367 -0.3331109
-0.14943613 0.26685843 -0.11763502 -0.025904004 -0.0034214996 0.5049581 0.5284839 -0.21734664
-0.09287942 -0.26668173 -0.048506677 0.46040195 -0.1062473 0.5624707 0.21491237 0.25546655
-0.12310273 0.09254495 -0.04736486 0.17038453 0.09690113 -0.31265247 -0.3533219 -0.013767265
0.103119135 0.080381505 0.01843064 -0.1976744 0.0091902325 -0.12781529 0.20894761 0.0082493685
0.0018013504 0.28914225 -0.007255629 -0.17913394 -0.065291606 0.070165046 -0.32224813 -0.049731188
0.0016603555 0.029389432 0.1284729 0.23397984 -0.0543687 -0.31609628 0.49752703 -0.24394763
-0.5409476 -0.17318027 0.19118318 -0.3795563 0.52814126 -0.023872005 -0.40798753 -0.18886095
-0.38756034 0.2296722 0.16054168 -0.047231212 -0.3169769 0.08610784 0.30513704 -0.37301308
-1.1180453 -0.09561636 -0.017868333 -0.71549124 0.0815179 -0.18723099 0.24275325 0.27970126
0.10208283 0.01866211 0.5722201 -0.08072184 0.37511867 0.023362938 -0.42378142 -0.45474657
0.036206502 -0.025504094 0.23472 -0.2576594 -1.1041081 0.16450237 0.18788385 -1.2612469
0.08220724 -0.1296319 0.022225404 -0.2642373 -0.80647105 -0.12928395 -0.56772566 -0.42586923
-0.20299529 0.5708746 -0.43836686 -0.27866444 -0.08297622 0.09672829 -0.24226332 -0.35349733
-0.16784371 -0.36469892 -0.34664533 0.09601568 -0.046897314 0.09779489 -0.70369256 0.30533376

fc2.bias f4 [64]
00000000: 89e8 413e a7b1 ecbd 07bd 913e ec64 8ebd
00000010: 19d4 313f 3959 b8be d6ba 3fbe 8eaf 53be
00000020: fedb 6d3e b0d8 3a3f c6d8 85bc 2d6c 0d3f
00000030: 685b be3e 0325 20be 8d05 83be 48f2 fd3d
00000040: 9340 4fbd a458 65bd 3803 14be fbfe f93e
00000050: 11a1 303f 80f4 4e3f 6859 64be 12f3 d5be
00000060: c564 83be 10f9 04be dda9 2bbe 1bd5 81bd
00000070: d735 933c c897 8e3e dba6 c1bc 06e0 873e
00000080: 02e2 8cbe 5cdc 0e3f b68a 103d 764b 6ebd
00000090: 7f04 23bd f9db debd 68a3 3d3f ff63 4abe
000000a0: 708b aebe 3d98 4e3f 747b d03e c006 1a3d
000000b0: 3793 983e fff0 cfbd 8e83 183f a5eb 42be
000000c0: afdc 1dbe fb7b 50be 7a87 883c 84fc 213f
000000d0: 3d45 003e 0154 adbd 5849 043f 8bd2 d93d
000000e0: a1b9 edbd 2551 f3bd 641f ea3c 2286 963c
000000f0: 2ddd ccbd 1f4c b63e 0d81 773d c3cf 11bd
0.18936361 -0.11557322 0.2846453 -0.06952843 0.6946426 -0.3600557 -0.18723616 -0.20672438
0.23228452 0.7298689 -0.016338717 0.5524319 0.37179112 -0.15639119 -0.25590172 0.12399727
-0.050598692 -0.055992737 -0.14454353 0.48827347 0.6899577 0.8084183 -0.22299731 -0.4178701
-0.2566282 -0.12985635 -0.16764016 -0.06339475 0.017970009 0.27850175 -0.023639133 0.26538104
-0.2751618 0.5580499 0.035288535 -0.058177434 -0.03979921 -0.108818 0.74077463 -0.19764708
-0.34090757 0.8070105 0.40719187 0.037604094 0.29799816 -0.10153388 0.59575737 -0.19035204
-0.15416215 -0.20359795 0.016666163 0.63275933 0.12526412 -0.08463288 0.51674414 0.10635861
-0.116076715 -0.118807115 0.028579421 0.018374506 -0.100031234 0.3560495 0.060425807 -0.035598528

fc3.weight f4 [4, 64]
00000000: c718 d33e 46e7 08be 480d e53e 4212 babe
00000010: 2d23 923e 6faa edbe 2416 e53e 6c9b febd
00000020: d654 783e e3c3 593e f9da dcbe b67a b53e
00000030: c96c 073e 97fd 78be 7251 72be ccec 11be
00000040: 07ba 77be 07ca 453e a2a5 68be cdab 5f3e
00000050: 5b2e 823e 7910 8c3e 9ace 86bd 3df6 d8be
00000060: 4de9 96be 57c2 8bbd ab2e a8be c4f5 093e
00000070: 29f1 c7bc 0d62 a33e 927e 643e 1a0f 713d
00000080: 48b5 fabd f751 643e b5a6 a6bb 9c56 19bf
00000090: 9afb 293e 765f 533d 5c26 923e d966 00be
000000a0: 0b05 a2be cd16 803e 6a9a bc3e 0572 133e
000000b0: 8d10 123e 2288 99be b959 323e eca9 8a3d
000000c0: c154 76be 6eb9 973e bbf3 dd3e f97f 903e
000000d0: ac90 aa3e c182 65bf 8c74 533e 7eaf 083f
000000e0: 1bde bebe fa52 afbd b4d2 d63e f062 db3d
000000f0: f1a4 f5be 4a03 433e fc97 fabe fa99 7b3e
00000100: 1c7f ab3e 3859 dd3d 35cf f73e 5cc1 e3be
00000110: 38b9 a83e 8025 0ebe f00f e33e 15b2 cbbe
00000120: 6c3c 6f3e c230 373e 1c20 c23d bd56 8d3e
00000130: f04a 253d ec27 a1bc 3c1c 2dbe 61a9 cd3e
00000140: cb15 e13d 0f2a 863e 456e c7be d058 4f3e
00000150: e564 7d3e d5c0 813e e090 97bc 4ef1 873d
00000160: 9f0f 1dbd b8fa 67bd c116 a1bc 057d 0a3e
00000170: 22e3 a0be 5ccb 9b3e d5f5 973e aaae 5e3e
00000180: 3943 80be 30fe 413e 0476 983d cc86 36bb
00000190: 0fd7 ce3e ee56 9e3e 607c 563e 5e4b 2fbc
000001a0: bab2 80be 2b2b 553e e700 ba3e a280 74bd
000001b0: edf8 de3b dc13 c8bd f12b 8e3e dbb1 26bd
000001c0: c3f4 37bb 48d3 8abd 5a73 b93e 8253 ab3e
000001d0: 3423 a33e 7611 873c 7966 813e 40db f63e
000001e0: 36ff b3bd 4710 4cbe 6118 b33e bc73 3dbe
000001f0: adaf 20be c662 f73d 7ef9 9d3d 83e6 bb3e
00000200: 8089 083d 655a e63e db84 5b3e 2b48 573e
00000210: e32a 933e fdd8 aebc b1a3 433f 52e6 c53d
00000220: 93a0 c1bb 9b16 893e a073 023d 62f1 bf3e
00000230: d4fd 3c3e d476 b8bc 0860 a4be e182 9b3e
00000240: 1742 633e 052c 24be d613 dcbe aa6f 153e
00000250: aa89 763e 8744 b53e 7eb0 d1be 7aba 1bbc
00000260: 6fb3 d4bc 777b 40bd a05f a23e be6d 1ebe
00000270: d6dc ba3e 09d6 383e 4732 173f 00ef c83b
00000280: 7eab e5be b2b2 2d3e 662c 933e 0a2c 893e
00000290: 078c ad3e 2fb7 57bf f979 563e 0823 cbbe
000002a0: c4c8 713d f593 823e 4506 b23e 5af9 e43e
000002b0: c597 5f3e bce7 743d 363d 7b3e abdd 053c
000002c0: a193 f33c 56e7 bebe d835 743d 0641 da3e
000002d0: a9b2 4d3e 5127 08bf 56d6 6c3e 39c4 013f
000002e0: 07e7 0d3d 868f 01bf 3e14 92bd 0147 fdbe
000002f0: bc89 a6be 2747 6d3e e7b6 b9bd b72d 423e
00000300: 782b b83e 2853 043f 359a b53e e012 983e
00000310: 23cc ad3e bbd1 e83e c45d 4c3d 2b90 22be
00000320: c31e 373e 4bef 973e dcdb e03e 97b9 a93d
00000330: 4030 1b3e b399 b7be 3e27 1c3e 8127 9b3e
00000340: 1aa5 303e b3ad 12bf 406b 793d ba97 8c3e
00000350: 014c 2d3e 879e c83e 4061 05bf df7a 80be
00000360: fe3c a1be 5788 b2bd b357 5abd 5eab 803e
00000370: e2ac 8fbe 9a2e 153c e4a6 a3be d6de 313e
00000380: 4cdd c2be 5d44 633e bb17 c73c 57b7 8dbe
00000390: e4ee 1e3e 67c0 383e 1d2d 8f3e f7fa 9c3e
000003a0: 81bf 89be 6888 b33e c520 933e bdc3 d93d
000003b0: 1b3d 133e de45 a9bd 3c8d 5c3e cf6b 13bd
000003c0: 6bcf 2bbe 4f81 a4bd e918 333f ab43 c23e
000003d0: 44b8 df3d c88b 00be 3728 0d3e f14e dc3e
000003e0: 014d 433e c676 17bf e1bf 093e 8a5e c6be
000003f0: e0df a33e 4002 603e a0a3 1ebf e882 873e
0.4122984 -0.13369474 0.44736695 -0.36342055 0.28542462 -0.46419093 0.44743454 -0.12431988
0.24251112 0.21266131 -0.43135813 0.35445184 0.13225092 -0.24315487 -0.23663881 -0.14250487
-0.24192058 0.19315349 -0.22719434 0.2184288 0.2542599 0.27356318 -0.06582375 -0.42375365
-0.2947487 -0.06824177 -0.32848105 0.13472658 -0.024406986 0.31910744 0.22313908 0.058852293
-0.12241608 0.22296892 -0.005085791 -0.5989778 0.16599885 0.05160471 0.2854489 -0.12539233
-0.31644472 0.25017396 0.3683656 0.14398964 0.14264126 -0.29986674 0.17417039 0.06770691
-0.24055769 0.2963366 0.43350014 0.28222635 0.333135 -0.8965264 0.20649928 0.5339278
-0.37278828 -0.085607484 0.4195763 0.1071223 -0.47977403 0.19044223 -0.4894408 0.24570456
0.33495414 0.10808033 0.48400274 -0.4448346 0.3295381 -0.13881493 0.44348097 -0.39784303
0.23362893 0.17889693 0.094787806 0.2760524 0.04035467 -0.019672357 -0.16905302 0.40168288
0.10990485 0.26203963 -0.38951316 0.20248723 0.2474552 0.25342432 -0.018501699 0.06637822
-0.038344976 -0.05663559 -0.01966417 0.13524254 -0.3142329 0.30428588 0.29679742 0.21746317
-0.25051287 0.18944621 0.07444385 -0.0027851341 0.40398452 0.30925697 0.20945883 -0.010699121
-0.25136358 0.20817249 0.36328813 -0.059692986 0.0068045766 -0.09769413 0.277679 -0.04069696
-0.0028069473 -0.0677858 0.3622082 0.3346215 0.31862795 0.016487818 0.25273493 0.4821415
-0.08788912 -0.19928084 0.34979537 -0.1850118 -0.15692015 0.120793864 0.077136025 0.36699304
0.033334255 0.4499084 0.21437399 0.21023624 0.28743657 -0.021343702 0.7642165 0.09663071
-0.0059090345 0.2677506 0.03184855 0.37488848 0.18456203 -0.0225176 -0.32104516 0.3037329
0.2219318 -0.16032417 -0.42983884 0.14593378 0.24075952 0.35403845 -0.40954965 -0.009504909
-0.025964467 -0.046992745 0.3171358 -0.15471551 0.3649661 0.18050398 0.5906109 0.0061320066
-0.448574 0.16962698 0.2874481 0.26791412 0.33895895 -0.8426389 0.20944966 -0.39675164
0.059029356 0.25503507 0.34770408 0.4472149 0.21835239 0.05979131 0.24535069 0.008170526
0.02973348 -0.3728587 0.059621662 0.42627734 0.20087685 -0.5318499 0.23128638 0.50690037
0.034644153 -0.50609624 -0.07132767 -0.49468234 -0.32526958 0.23171674 -0.09068089 0.18962751
0.35970664 0.51689386 0.35469213 0.297019 0.33944806 0.45472512 0.04989411 -0.15875308
0.17882828 0.29674754 0.4391774 0.082873516 0.15155125 -0.3585945 0.15249345 0.30303577
0.17250481 -0.57296294 0.060893297 0.27459508 0.16923524 0.39183447 -0.52101517 -0.25093743
-0.31491846 -0.08717411 -0.053306293 0.25130743 -0.28061587 0.009105349 -0.31963265 0.17370161
-0.3805946 0.22194047 0.024303308 -0.2767894 0.15520817 0.18042146 0.27964106 0.3066022
-0.26903918 0.35065007 0.2873594 0.10633037 0.14378779 -0.08265279 0.21538252 -0.035991486
-0.16778342 -0.08032476 0.69959885 0.37942252 0.10923818 -0.12553322 0.13784872 0.43028978
0.19072343 -0.5916561 0.13452102 -0.38744003 0.3200674 0.21875858 -0.6196842 0.2646706

fc3.bias f4 [4]
00000000: a6ef 113f a298 f43e 9f54 d03e ebfc bc3e
0.570063 0.477727 0.4068956 0.3691171
